HW1/model_cnn.pth (torch, 29070 bytes, 16 tensors)

encoder.0.weight f4 [16, 3, 3, 3]
0	0x3e0c38c2	0.13693526
1	0x3d563ff9	0.052307103
2	0xbd1f37b2	-0.038871475
3	0xbd5b938e	-0.053607516
4	0xbe9417d8	-0.2892444
5	0xbdbe4d29	-0.09292061
6	0xbe1a9d7f	-0.15099142
7	0x3d72590b	0.05916695
8	0xbe7d5612	-0.24739864
9	0xbd8b2c52	-0.06795563
10	0x3db7eba0	0.08980489
11	0xbc2652e2	-0.010151597
12	0xbe0e7947	-0.13913451
13	0xbde4290a	-0.1114064
14	0xbe562f8a	-0.20916572
15	0xbd9b2063	-0.07574537
16	0xbd2b197e	-0.041772358
17	0xbd1242d2	-0.035708256
18	0xbd0017ae	-0.031272583
19	0xbe2fc1ea	-0.17163816
20	0xbdf32aba	-0.11873384
21	0x3d617eef	0.055052694
22	0xbd0f5651	-0.034994427
23	0xbe735c75	-0.23765738
24	0xbe5d9929	-0.21640457
25	0x3d5ec8ee	0.05439084
26	0xbe135044	-0.14386088
27	0x3e98919d	0.29798594
28	0x3e72da08	0.23715985
29	0xbdb7dc61	-0.08977581
30	0xbc840c65	-0.016119191
31	0x3da09a77	0.07841962
32	0x3e0a871a	0.135281
33	0x3d757ff2	0.05993647
34	0x3e45783e	0.1928415
35	0xbd02429e	-0.031801812
36	0x3e7ce9f0	0.24698615
37	0x3e165378	0.14680278
38	0x3e410923	0.18851142
39	0x3e409a7d	0.18808933
40	0x3e78690d	0.24258824
41	0x3e1717f2	0.14755228
42	0x3dedbc5d	0.11608193
43	0x3e34b956	0.17648825
44	0x3dda651b	0.106638156
45	0xbc9032b2	-0.017602298
46	0xbd44267e	-0.04788827
47	0x3e2722af	0.16321824
48	0x3e2cf5d9	0.16890658
49	0x3e205738	0.15658271
50	0x3e26fbed	0.1630704
51	0x3e438499	0.1909355
52	0x3d21d830	0.039512813
53	0x3d6184ac	0.055058166
54	0x3e8ad2a0	0.2711382
55	0x3e8107e9	0.25201347
56	0x3e8ea373	0.27859077
57	0x3d9619e7	0.07329159
58	0x3e1c874a	0.15285984
59	0x3e39f919	0.1816143
60	0x3b69c52c	0.0035670502
61	0x3d9e23b0	0.077216506
62	0x3e1597b0	0.14608645
63	0x3dc7be40	0.09753084
64	0x3daa81b0	0.08325517
65	0x3d2d5b3f	0.042323347
66	0xbc3917ea	-0.011297205
67	0x3e441e79	0.1915225
68	0xbcebfa1d	-0.028805787
69	0x3e9e5af3	0.30928764
70	0x3dd9f679	0.10642714
71	0x3d5b3c1f	0.053524133
72	0x3e9fcb42	0.3120976
73	0x3e51de8b	0.2049505
74	0x3e1236dd	0.14278741
75	0x3e162691	0.1466315
76	0x3d3d0211	0.04614455
77	0x3e6310e4	0.22174412
78	0x3e8e0411	0.27737477
79	0x3e91d63c	0.2848376
80	0x3ba4158b	0.005007451
81	0x3e75326f	0.2394502
82	0x3d89f307	0.06735807
83	0x3cdde67f	0.027087448
84	0x3e80b9bf	0.25141713
85	0x3d91256d	0.070872165
86	0xbbb0bd2d	-0.0053936453
87	0x3e1991d8	0.14997041
88	0x3d9ea1d3	0.07745709
89	0x3e2bc5cf	0.16774677
90	0xbd796e7e	-0.06089639
91	0x3dd58b4e	0.10426961
92	0x3ce2a668	0.02766724
93	0x3d7a8e13	0.06117065
94	0x3dda8d3b	0.10671469
95	0x3e0be20f	0.13660453
96	0x3e9deae4	0.3084327
97	0x3e763020	0.24041796
98	0xbddf1e41	-0.10894442
99	0x3e5bfb33	0.21482544
100	0x3e51213c	0.20422834
101	0xbdc34f3a	-0.09536596
102	0x3e7ae9d2	0.24503258
103	0x3e5104fa	0.20412055
104	0x3d2672d7	0.040636864
105	0x3e11da23	0.14243369
106	0x3d902991	0.07039178
107	0xbdbe64fc	-0.09296605
108	0x3e2ff55f	0.17183445
109	0xbd0580d0	-0.03259355
110	0x3d183e77	0.037168946
111	0xbcde86bb	-0.027163854
112	0x3d1fa237	0.03897306
113	0xbd921bd1	-0.07134212
114	0x3e967e77	0.2939336
115	0x3e128080	0.14306831
116	0xbe2ff69b	-0.17183916
117	0xbcb0d563	-0.021586126
118	0x3dbf6dd8	0.09347123
119	0xbe1c8285	-0.15284164
120	0xbce94189	-0.028473632
121	0x3cd4cf23	0.025977677
122	0x3d734794	0.059394434
123	0x3e69f87b	0.22848694
124	0xbe1b41cc	-0.15161818
125	0xbe506859	-0.20352305
126	0xbc4c8de0	-0.0124849975
127	0x3dcaca22	0.09901835
128	0xbdf03029	-0.11727936
129	0x3dbdf673	0.09275522
130	0xbe9546e9	-0.29155663
131	0xbdb3aea5	-0.08773545
132	0xbda162e7	-0.07880192
133	0x3d9b39b5	0.07579366
134	0xbe59f1af	-0.21283601
135	0x3e6f9d41	0.23399831
136	0x3df3ba9f	0.119008295
137	0x3e5fb2f8	0.21845615
138	0x3d12a13d	0.0357983
139	0x3e97dad6	0.29659146
140	0xbd92168c	-0.07133207
141	0x3e65638d	0.22401257
142	0xbc6d8fcd	-0.014499617
143	0x3e24ea87	0.1610509
144	0x3e082d62	0.13298562
145	0xbc607767	-0.013700343
146	0xbcd3f151	-0.025871905
147	0x3e6ff946	0.23434934
148	0xbd684c3f	-0.05671334
149	0x3d8ba026	0.06817655
150	0x3e9124bc	0.2834834
151	0x3e79006e	0.2431657
152	0x3cf7e996	0.03026275
153	0x3e44e2fc	0.19227213
154	0x3e4958f2	0.19662836
155	0x3e929e18	0.2863624
156	0x3d74a537	0.059727874
157	0x3e24bada	0.16086903
158	0x3d10e6d5	0.03537639
159	0xbd8d08e5	-0.06886462
160	0x3e07f98f	0.13278793
161	0x3e02ca06	0.12772378
162	0xbe260d64	-0.16216046
163	0xbdff6bec	-0.12471756
164	0x3d65b154	0.056077316
165	0xbe12be1d	-0.14330335
166	0xbe24ba7e	-0.16086766
167	0xbd82a8c6	-0.06379847
168	0xbe5fa7d1	-0.2184136
169	0xbe7b20c8	-0.24524224
170	0xbe6201a9	-0.22070946
171	0xbe79b9c3	-0.24387269
172	0xbd59044e	-0.05298262
173	0xbc9316a3	-0.01795513
174	0x3d45ed55	0.04832204
175	0xbe34b61b	-0.17647593
176	0xbe2e9451	-0.17048766
177	0xbdadd1dc	-0.08487293
178	0xbc406127	-0.011741913
179	0xbe17ceb8	-0.1482495
180	0x3e1936aa	0.14962259
181	0xbe0a9648	-0.1353389
182	0x3de1a981	0.110186584
183	0xbe644f1a	-0.222958
184	0xbe80a191	-0.25123265
185	0xbb3ed6d2	-0.0029119742
186	0xbd4f67f5	-0.05063625
187	0xbe5e6b40	-0.217206
188	0xbd8054af	-0.06266152
189	0x3e86d92f	0.26337573
190	0x3d8cce56	0.06875293
191	0x3d925f30	0.07147062
192	0x3e1bd871	0.15219285
193	0x3ca4c560	0.020113647
194	0xbd888642	-0.06666233
195	0x3cc53be0	0.024076402
196	0x3cb2e232	0.021836374
197	0x3dc6aa17	0.09700411
198	0x3e17f731	0.1484039
199	0xbc4d741b	-0.012539889
200	0xbe52b608	-0.20577252
201	0xbe265be7	-0.16245995
202	0xbe7f0c5b	-0.24907057
203	0xbda26c46	-0.07930808
204	0xbe12d3a3	-0.14338546
205	0xbe2a5f75	-0.16637976
206	0x3d3bc448	0.045841485
207	0x3e940790	0.2891202
208	0x3e0823b1	0.13294865
209	0xbe067f0f	-0.13134407
210	0x3e345dae	0.17613861
211	0xbddbf005	-0.107391395
212	0xbd0f0e0f	-0.034925517
213	0x3dc4f4c5	0.096169986
214	0xbe191c61	-0.14952232
215	0xbd5742e9	-0.052554045
216	0x3c902085	0.017593632
217	0x3dcb0fbe	0.09915112
218	0xbe006963	-0.12540202
219	0x3e22d2ef	0.15900777
220	0x3d72bc4d	0.05926161
221	0xbda37204	-0.07980731
222	0x3e367935	0.17819674
223	0xbe3d8fe3	-0.1851192
224	0xbe0d06be	-0.13772103
225	0x3d9b7afe	0.07591818
226	0xbdc67e47	-0.09692054
227	0x3d58e271	0.052950326
228	0xbe39ddb9	-0.18150987
229	0x3aba2d9a	0.0014204264
230	0x3cde7845	0.027156958
231	0x3e3cc1b3	0.18433265
232	0xbd8ac154	-0.06775156
233	0xbc962dbd	-0.018332357
234	0x3e1de88e	0.15420744
235	0xbe3b372b	-0.18282764
236	0xbe266371	-0.16248871
237	0xbc7e5469	-0.015523055
238	0xbe450964	-0.19241863
239	0xbeaa049a	-0.33206636
240	0xbe4a93eb	-0.19782989
241	0xbe5fc11c	-0.21851009
242	0xbe88ca05	-0.2671663
243	0xbe72380a	-0.2365419
244	0x3d91bb52	0.07115807
245	0x3e4360ee	0.19079944
246	0xbe8038d2	-0.2504335
247	0xbe41d6f2	-0.18929651
248	0x3e24d8e4	0.16098362
249	0x3e0a5c21	0.13511707
250	0xbe60ea1b	-0.21964304
251	0x3e37cb76	0.17948708
252	0xbe7d4b01	-0.24735643
253	0x3e06c353	0.13160448
254	0x3d85386a	0.06504901
255	0xbe782927	-0.24234448

encoder.0.bias f4 [16]
0	0x3e586a55	0.21134312
1	0xbe226c71	-0.1586168
2	0xbe6db80a	-0.23214737
3	0x3eab4628	0.33451962
4	0x3ecefb72	0.40426213
5	0x3e80ea65	0.2517883
6	0x3e8df03d	0.2772235
7	0x3e5075b4	0.203574
8	0x3df36bed	0.118858196
9	0x3e35a389	0.17738165
10	0xbe1a29d0	-0.15055013
11	0xbe892197	-0.2678344
12	0x3e80308e	0.25037044
13	0x3ec2ced6	0.38048428
14	0x3ef5c95d	0.4800519
15	0x3e1872c1	0.14887525

encoder.2.weight f4 [8, 16, 3, 3]
0	0xbb95fadd	-0.0045770244
1	0x3d363bb6	0.04449054
2	0x3d4b338d	0.04960971
3	0x3b4fbbd0	0.0031697638
4	0x3e3b921f	0.1831746
5	0x3e48b8bd	0.19601722
6	0xbcc5bad1	-0.024136933
7	0x3d87d4c0	0.06632376
8	0x3d117eec	0.035521433
9	0x3caa577a	0.020793665
10	0xbd9c8d8e	-0.07644187
11	0xbd17a4d3	-0.037022423
12	0x3d17964b	0.037008565
13	0xbd86e611	-0.065868504
14	0xbd3665c4	-0.044530645
15	0x3bd1eb17	0.0064061987
16	0xbe0c5a5f	-0.13706349
17	0xbbf1d252	-0.0073798085
18	0xbd8bd57f	-0.068278305
19	0x3d21917f	0.039445397
20	0x3d4b1140	0.049576998
21	0x3ca4f922	0.020138327
22	0xbcd6f195	-0.026238242
23	0x3b2a1bcd	0.0025956512
24	0xbc8771b5	-0.016533712
25	0xbd23c945	-0.039986867
26	0xbd05fcf0	-0.032711923
27	0x3c154692	0.009111064
28	0x3b82be9b	0.003990007
29	0x3d82277b	0.063551866
30	0x3ca0c3eb	0.019624671
31	0xbc89e012	-0.016830478
32	0xbc835e79	-0.016036259
33	0x3e04ffb9	0.12988175
34	0x3d96ff3c	0.07372901
35	0x3caf44b5	0.021395067
36	0x3dfdc793	0.123915814
37	0x3db66927	0.08906775
38	0x3e76bd70	0.24095702
39	0x3dff785d	0.12474129
40	0x3e93cdfe	0.28868097
41	0x3e8d7776	0.27630204
42	0x3daa712e	0.083223686
43	0x3e77b291	0.24189211
44	0x3e132a9d	0.14371724
45	0x3d62244c	0.055210397
46	0x3c98e115	0.018662015
47	0x3c8a253c	0.016863458
48	0x3c2c205f	0.010505765
49	0x3c260bf9	0.01013469
50	0x3da98fe5	0.08279399
51	0x3d4741f9	0.0486469
52	0x3d5f9be4	0.05459203
53	0x3d98c257	0.074589424
54	0x3ddab061	0.10678173
55	0x3e1795e5	0.14803274
56	0x3e09d008	0.13458264
57	0x3db07381	0.086157806
58	0x3de36421	0.111030824
59	0x3e39f9a3	0.18161635
60	0x3b3c3e49	0.0028723648
61	0x3c737d8b	0.014861475
62	0x3e1614c8	0.14656365
63	0x3e3a567b	0.18197052
64	0x3dbad7f8	0.09123224
65	0x3e3ad6cf	0.18246005
66	0x3e438098	0.19092023
67	0x3dcd1ab4	0.10014859
68	0x3e47ece8	0.19523966
69	0x3e22d266	0.15900573
70	0x3e138205	0.14405067
71	0x3dce5547	0.10074859
72	0x3d241371	0.040057603
73	0xbba6c071	-0.005088859
74	0x3d346dc3	0.04404999
75	0x3c226114	0.009910841
76	0x3e5365f2	0.20644358
77	0x3ddbb385	0.107276
78	0x3da96292	0.08270754
79	0x3d2d5ca9	0.042324696
80	0x3e0c9eee	0.13732502
81	0x3db7705c	0.08956978
82	0x3c882c39	0.01662265
83	0x3da059e0	0.07829642
84	0x3e12009a	0.14258042
85	0x3e2618ef	0.16220449
86	0x3e25f05b	0.1620497
87	0x3c8fb4b5	0.017542223
88	0x3e0b8035	0.13623126
89	0x3e2d3dd4	0.16918117
90	0xbd78a40d	-0.060703326
91	0x3cdd500e	0.027015712
92	0x3d12594b	0.035729688
93	0xbddc156e	-0.10746275
94	0x3d1eece6	0.038800143
95	0x3c8af14f	0.016960768
96	0x3d4e4de8	0.050367266
97	0xbda65ae6	-0.08122806
98	0x3d1a99b1	0.037744228
99	0xbb45cede	-0.0030183117
100	0xbcf701bc	-0.030152194
101	0xbd895539	-0.06705708
102	0xbda2e4f0	-0.079538226
103	0xbc4336f7	-0.01191496
104	0xbd3c9338	-0.046038836
105	0x3d9e5123	0.07730319
106	0xbcfccaff	-0.030858515
107	0x3bdd9a1a	0.006762755
108	0x3da8b978	0.082385
109	0x3e0c49ec	0.13700074
110	0x3d2623a7	0.040561344
111	0x3d49b494	0.04924448
112	0x3dd7ef18	0.105436504
113	0x3dc39ea3	0.09551742
114	0x3dc5a6af	0.09650933
115	0x3dd59866	0.10429458
116	0x3df08b29	0.11745293
117	0x3e188eb3	0.14898185
118	0x3e5fc19b	0.21851198
119	0x3de93144	0.1138635
120	0x3e0856f1	0.13314416
121	0x3e8f93ac	0.28042352
122	0x3e1f1aa3	0.15537505
123	0x3db06d1d	0.08614562
124	0x3e3f9055	0.18707402
125	0x3df30ea3	0.11868026
126	0x3e13e171	0.14441468
127	0x3e42b419	0.19014014
128	0x3e3685fd	0.1782455
129	0x3e240482	0.16017345
130	0x3e8305d8	0.25590396
131	0x3e6f6c51	0.23381163
132	0x3e3a4ff6	0.18194565
133	0x3e3d41d5	0.18482144
134	0x3e634a45	0.221963
135	0x3d61b06b	0.055099886
136	0xbc25977e	-0.010106919
137	0x3e01e1af	0.12683748
138	0x3d9190d4	0.07107702
139	0x3e099ad1	0.13437964
140	0x3d85a56c	0.06525692
141	0xbd039bd4	-0.03213103
142	0x3e1356dc	0.14388603
143	0x3d5a48c2	0.053292044
144	0x3dac8a5d	0.08424828
145	0x3cc4eb5e	0.024038013
146	0x3dbe9ef5	0.093076624
147	0x3db4a40b	0.08820351
148	0x3e2b03b9	0.16700639
149	0x3e1a5ac3	0.15073685
150	0xbca47945	-0.020077357
151	0xbc54b85f	-0.012983411
152	0x3c940a24	0.018071242
153	0xbd7c00de	-0.061524265
154	0x3cd7ce19	0.026343392
155	0x3d4c473c	0.049872622
156	0xbd9f55cf	-0.077800386
157	0x3c329942	0.010900797
158	0xbd9eae02	-0.07748033
159	0xbda82a7c	-0.08211228
160	0xbd86617d	-0.06561563
161	0x3d4a59b2	0.049401946
162	0xbbb9564a	-0.0056560384
163	0xbc5d6471	-0.013512717
164	0xbce01e5b	-0.027358225
165	0x3d24a020	0.04019177
166	0x3ce4f269	0.027947621
167	0xbd52f002	-0.05149842
168	0x3d7d8570	0.061894834
169	0xbde81e18	-0.11333865
170	0xbd26768d	-0.040640403
171	0x3dcb56d6	0.09928672
172	0x3d445bb0	0.047939003
173	0x3e279733	0.16366272
174	0x3dd53fe0	0.10412574
175	0x3db5c5ea	0.0887564
176	0x3dee49e7	0.116351895
177	0x3cc86840	0.024463773
178	0x3dd09ba6	0.101859376
179	0x3e0b5a7a	0.13608733
180	0x3e3fd574	0.1873377
181	0x3db2b4b9	0.08725876
182	0x3d6692f9	0.056292508
183	0x3df9dce7	0.12200337
184	0x3e3233a9	0.1740252
185	0x3e812ab4	0.25227892
186	0x3e646ddd	0.22307535
187	0x3e84d587	0.25944158
188	0x3e7a1866	0.2442337
189	0x3bd24e00	0.0064179897
190	0x3dd1b5f6	0.102397844
191	0x3dc1aa61	0.09456325
192	0x3c82f9de	0.015988287
193	0xbceb6570	-0.028734893
194	0x3d939092	0.07205309
195	0x3df1d346	0.11807875
196	0x3da3060d	0.079601385
197	0x3e04cd98	0.12969053
198	0xbd43728f	-0.047716673
199	0x3ceb0386	0.028688204
200	0x3ceac801	0.028659822
201	0x3dfe7c0e	0.12426005
202	0x3e4954cb	0.19661252
203	0x3e09b569	0.13448109
204	0xbd06b198	-0.03288421
205	0x3c0a2dfe	0.008433817
206	0x3cd54cf9	0.02603768
207	0x3e414355	0.18873341
208	0x3e348882	0.17630199
209	0x3e0573a1	0.1303239
210	0x3de41526	0.11136846
211	0x3df6c0fc	0.120485276
212	0x3e1eb828	0.15499938
213	0x3e4f6631	0.20253827
214	0x3d723fc5	0.059142847
215	0x3e2545c3	0.16139893
216	0xbbf0254e	-0.007328666
217	0x3d35831f	0.0443145
218	0x3d4a1e98	0.049345583
219	0x3dca0a8b	0.09865292
220	0x3df354cb	0.11881407
221	0x3d84ecd9	0.064904876
222	0x3d8c3a0b	0.06847008
223	0x3d48017f	0.04882955
224	0x3e0a41af	0.13501619
225	0xbd799633	-0.060934257
226	0x3dcbdcab	0.099541984
227	0x3d594745	0.053046484
228	0x3dc946be	0.09827946
229	0x3dbc7d15	0.09203545
230	0x3ddae408	0.10688025
231	0xbb6231ff	-0.0034514663
232	0x3c794d79	0.015216225
233	0x3e19f581	0.15035059
234	0xbc3790b7	-0.011203936
235	0x3d8c250b	0.06843003
236	0x3d4afa59	0.049555156
237	0xbd96ffc4	-0.07373002
238	0x3d10b474	0.035328344
239	0x3cb218bb	0.021740308
240	0xbd947d42	-0.072504535
241	0xbd221666	-0.039572142
242	0xbcc5ebca	-0.024160285
243	0x3cf073d4	0.029352106
244	0x3bded712	0.0068005407
245	0xbd54d4d0	-0.051960766
246	0xbd283ecf	-0.041075524
247	0xbc9b904d	-0.018989706
248	0xbd004fb3	-0.031326007
249	0xbcfdcd74	-0.030981757
250	0xbd9ca42d	-0.076485015
251	0x3c1709b6	0.009218624
252	0x3d38963e	0.045065157
253	0x3dff1a60	0.124562025
254	0x3d34fed1	0.044188324
255	0x3d875360	0.066076994

encoder.2.bias f4 [8]
0	0x3e347702	0.17623523
1	0x3e0ed07a	0.13946715
2	0x3ebb1034	0.365358
3	0x3e41b69e	0.18917319
4	0x3e282f9b	0.1642441
5	0x3e75486d	0.2395341
6	0x3e6b2c74	0.22966176
7	0xbdbb763f	-0.09153413

encoder.4.weight f4 [4, 8, 3, 3]
0	0xbb5135db	-0.003192297
1	0x3d39ed02	0.045392044
2	0x3e6fb3ec	0.23408478
3	0x3db765b9	0.08954949
4	0x3e51412e	0.2043502
5	0x3e61fd91	0.22069384
6	0xbdaa4777	-0.08314412
7	0x3d8bdd01	0.068292625
8	0x3e986676	0.29765671
9	0x3d6b090b	0.05738167
10	0x3d9e4888	0.07728678
11	0x3d765626	0.06014075
12	0x3d10d7e2	0.035362132
13	0x3ce59ad9	0.028027939
14	0x3e2c40cd	0.16821595
15	0x3d94c5fb	0.07264324
16	0xbc45817b	-0.012054796
17	0x3e2eb97f	0.17062949
18	0x3d04566f	0.032308992
19	0x3d2d6ce7	0.042340185
20	0x3e470f95	0.19439538
21	0xbda75c21	-0.08171869
22	0x3e753b3a	0.23948374
23	0x3e4c34cd	0.19942017
24	0xbe15d10d	-0.14630528
25	0x3df88c22	0.12136103
26	0x3e710702	0.2353783
27	0x3d5f6ae2	0.05454529
28	0x3d88b632	0.06675376
29	0x3dc9a028	0.098450005
30	0x3e1c808d	0.15283413
31	0x3e200054	0.15625125
32	0x3e9285cc	0.28617704
33	0x3db255c9	0.087077685
34	0x3d66375f	0.05620515
35	0x3e6ceb0d	0.2313654
36	0x3e203e10	0.15648675
37	0x3e0f535d	0.13996644
38	0x3e6e8d19	0.23296012
39	0x3da4384c	0.0801855
40	0x3dc222e9	0.09479315
41	0x3e4518fc	0.19247812
42	0xbdc81b33	-0.09770813
43	0x3e236c0b	0.15959184
44	0x3e9c8d7a	0.30576688
45	0xbd0a3764	-0.03374423
46	0x3c5f3a0f	0.013624682
47	0x3d090da9	0.033460293
48	0x3c75c4e3	0.015000555
49	0xbcaae979	-0.020863282
50	0x3dbf609c	0.09344599
51	0xbd39d2c3	-0.045367014
52	0x3d60d633	0.054891776
53	0x3e98914b	0.2979835
54	0x3d2fcae4	0.0429181
55	0xbc32434d	-0.010880304
56	0x3d2bee22	0.041975148
57	0xbd2824c8	-0.041050702
58	0x3e64eed6	0.22356734
59	0x3ea0f22c	0.31434762
60	0xbd3742ff	-0.044741627
61	0x3d76ba20	0.060236096
62	0x3e14ae73	0.14519672
63	0x3db01dc4	0.08599427
64	0x3d84fe05	0.06493763
65	0xbd8c11b2	-0.068393126
66	0x3df0c319	0.11755962
67	0xbd4cef8d	-0.05003314
68	0xbeb3bc61	-0.3510466
69	0x3e6dc10e	0.23218176
70	0x3d2602be	0.04052996
71	0xbea644c7	-0.32474348
72	0x3d308faa	0.04310576
73	0x3db903d1	0.09033931
74	0x3e488b5d	0.19584413
75	0x3daf951e	0.08573364
76	0x3e7ec69a	0.24880448
77	0x3e2f3f28	0.17113936
78	0x3da6794e	0.08128606
79	0x3d45b0d5	0.048264343
80	0xbce874f3	-0.028376078
81	0xba0f9f77	-0.0005478779
82	0x3da3c0a4	0.07995728
83	0x3e50e5f0	0.20400214
84	0x3e6b1806	0.22958383
85	0x3e626649	0.22109331
86	0x3d8b7cce	0.06810914
87	0xbca3f7f0	-0.020015687
88	0x3dd6a6f0	0.104810596
89	0x3d361ef9	0.04446313
90	0xbd9dacda	-0.076989844
91	0x3da2996c	0.07939419
92	0x3e87e1cb	0.26539454
93	0xbab9f0c8	-0.0014186138
94	0x3e96b7a7	0.2943699
95	0x3e30ec07	0.17277537
96	0xbe324f39	-0.17413034
97	0x3cf1a119	0.029495763
98	0x3e10cb7d	0.14140125
99	0x3dc7a0eb	0.097474895
100	0x3e2438ff	0.16037367
101	0x3e745ae3	0.23862796
102	0x3e316101	0.1732216
103	0x3dd5ef34	0.10446015
104	0x3e6471cf	0.2230904
105	0x3df0eea7	0.11764269
106	0xbc239bf1	-0.00998591
107	0xbc9eee00	-0.019400597
108	0xbda24efb	-0.079252206
109	0x3e10f0ab	0.14154308
110	0x3e6ac4f3	0.22926693
111	0x3ce77d44	0.028257973
112	0x3e3da276	0.18519005
113	0x3e2cffb2	0.16894415
114	0xbd8585f7	-0.065196924
115	0x3e1fa717	0.15591083
116	0x3c8c288e	0.017109182
117	0xbc90a7b5	-0.017658094
118	0x3dcfbeb5	0.10143796
119	0x3e6e8486	0.23292741
120	0x3e014ce0	0.12626982
121	0x3e2a48ff	0.16629408
122	0x3db26587	0.08710771
123	0x3e2767d6	0.16348204
124	0x3dff917c	0.12478921
125	0x3d191d90	0.03738171
126	0xbda7e40c	-0.08197793
127	0x3e0ea8fb	0.13931648
128	0x3e1f4640	0.15554142
129	0x3e5467f5	0.20742781
130	0x3d9bff02	0.07616998
131	0x3e141635	0.14461596
132	0xbd632a92	-0.05546052
133	0x3d526d7d	0.051373947
134	0xbd2501f8	-0.04028508
135	0x3de6ec6a	0.11275561
136	0xbe50e157	-0.2039846
137	0xbe0409f0	-0.12894416
138	0xbcc45f6a	-0.023971278
139	0xbdb7832a	-0.089605644
140	0xbe4ccc12	-0.19999722
141	0x3dc9f49d	0.098611094
142	0xbce4ac12	-0.02791408
143	0x3e3587f2	0.1772764
144	0x3e10ad2c	0.1412856
145	0x3b48c423	0.0030634485
146	0x3e280ab1	0.16410328
147	0x3d4f15ed	0.05055802
148	0x3e6a95c3	0.22908692
149	0x3e556c65	0.2084213
150	0x3dc3e246	0.095646426
151	0x3e31bf92	0.17358235
152	0x3e23fe2a	0.16014925
153	0x3e2d3e37	0.16918264
154	0x3e35e624	0.17763573
155	0x3e227b91	0.1586745
156	0x3d0f0e0d	0.03492551
157	0x3e8468c9	0.25861195
158	0x3e45a739	0.19302072
159	0x3e164863	0.14676051
160	0x3e162444	0.14662272
161	0x3d778aa5	0.060434956
162	0x3bbcd2d0	0.0057624355
163	0x3ce7daea	0.028302629
164	0x3d7b3813	0.061332773
165	0x3d89219d	0.06695864
166	0x3e57bf7e	0.21069142
167	0x3e55b848	0.20871079
168	0xbdc85e53	-0.09783616
169	0x3e1ca08c	0.15295619
170	0xbc355b1b	-0.0110690845
171	0xbd3ca3f8	-0.04605481
172	0x3c889cd8	0.016676351
173	0x3dfe978f	0.12431251
174	0xbd31cdd3	-0.04340918
175	0x3e5b5c5e	0.21421954
176	0x3e1bded1	0.15221716
177	0x3c845167	0.016152097
178	0x3e78bb9f	0.24290322
179	0x3ddb1b1f	0.10698532
180	0x3db17022	0.08663966
181	0x3d2a462d	0.04157083
182	0x3de54190	0.11194146
183	0xbd3c5913	-0.045983385
184	0x3e790f32	0.24322203
185	0x3e07e925	0.13272531
186	0xbd11e8b9	-0.035622332
187	0x3e72d0f2	0.23712519
188	0x3d970926	0.07374792
189	0x3cc3e4b9	0.023912774
190	0x3e1cb80c	0.15304583
191	0x3d9e42bd	0.07727573
192	0x3c614458	0.013749205
193	0x3dc6895c	0.09694168
194	0x3d0934e7	0.033497717
195	0x3e2d33bb	0.16914265
196	0x3e67b0a7	0.22625981
197	0x3e2c7d5e	0.16844699
198	0x3df6dad2	0.120534554
199	0x3d88a27b	0.06671616
200	0x3e21d719	0.1580471
201	0xbcbfabc3	-0.023397332
202	0x3e557f76	0.20849404
203	0x3e22d69b	0.15902178
204	0xbcfda86f	-0.030964104
205	0x3d608350	0.05481273
206	0x3e387d07	0.18016444
207	0x3bf23ae4	0.007392274
208	0x3bada03e	0.0052986434
209	0x3d9cdad5	0.076589264
210	0xbe3a013b	-0.18164532
211	0xbe7eaa44	-0.24869639
212	0xbe1e5a2a	-0.15464082
213	0xbd1a1e03	-0.037626278
214	0x3bdd17ec	0.0067472365
215	0xbe3bb1b5	-0.18329509
216	0x3e21e82c	0.15811223
217	0x3df045a9	0.117320366
218	0xbda14410	-0.0787431
219	0x3ce6d62b	0.028178295
220	0x3e406d1a	0.18791619
221	0x3cf45a66	0.029828262
222	0x3c4881e0	0.012237996
223	0x3da961ea	0.08270629
224	0x3e38ef16	0.18059954
225	0x3e14dcdb	0.14537375
226	0x3d9fb279	0.07797713
227	0x3d6fe8f1	0.05857176
228	0xbc3b69ce	-0.0114388
229	0x3ca71988	0.020397916
230	0x3e511de9	0.20421566
231	0x3bfcf204	0.00771928
232	0x3e4b0df4	0.19829541
233	0x3de4a32b	0.11163934
234	0xbe569125	-0.20953806
235	0xbe0b1092	-0.1358054
236	0xbdd70ca3	-0.10500457
237	0xbe2b6a74	-0.16739827
238	0x3e44d4ad	0.19221754
239	0x3e0abac6	0.13547811
240	0x3d95a0a9	0.07306034
241	0x3e291e8e	0.16515562
242	0x3d3ff3a0	0.0468632
243	0x3cc65975	0.024212578
244	0x3e193591	0.1496184
245	0xbd4864fd	-0.048924435
246	0x3cbdfa41	0.02319062
247	0xbc1ee1e2	-0.009697409
248	0x3e05dff4	0.13073713
249	0x3b0e1c63	0.00216844
250	0x3e07ae39	0.13250054
251	0x3e3951d6	0.18097624
252	0xbd275c75	-0.04085966
253	0x3dc0ba03	0.09410479
254	0x3dcefedf	0.101072066
255	0xbc4e4ce2	-0.0125915725

encoder.4.bias f4 [4]
0	0x3e2e286b	0.17007606
1	0x3cf7a0a1	0.030227961
2	0x3dd56bf7	0.10420983
3	0x3e26df0f	0.16296028

encoder.6.weight f4 [16, 4, 4, 4]
0	0x3ce9a93d	0.028523082
1	0xbe1c6d83	-0.1527615
2	0x3e18c5e8	0.14919245
3	0xbdcf02ed	-0.1010798
4	0xbc89bfb4	-0.016815044
5	0x3e4f9850	0.20272946
6	0x3d4d27fa	0.050086953
7	0x3e7288f2	0.23685053
8	0xbb8175f5	-0.003950829
9	0x3b1a7253	0.0023566678
10	0x3cc593a6	0.024118256
11	0xbcb6dec6	-0.022323024
12	0x3d808ea3	0.06277206
13	0xbccef2c6	-0.025262248
14	0xbc37161b	-0.011174704
15	0xbdf9a712	-0.12190069
16	0x3e88ca8e	0.26717037
17	0xbb5ab020	-0.003336914
18	0xbdd931f0	-0.10605228
19	0xbd7691f6	-0.060197793
20	0x3e07fe67	0.1328064
21	0x3e38258d	0.17983074
22	0x3e115bbe	0.14195153
23	0x3e1e5cfa	0.15465155
24	0x3d885bdb	0.06658145
25	0x3d5f596a	0.05452863
26	0xbdbc4eed	-0.091947414
27	0x3e0a6739	0.13515939
28	0x3dd2c869	0.102921315
29	0xbcf62039	-0.030044662
30	0x3c848a4d	0.016179228
31	0xbdb7d6dd	-0.08976529
32	0x3e868602	0.26274115
33	0xbe0f87d4	-0.14016658
34	0x3dfe771e	0.124250636
35	0x3d93172e	0.071821555
36	0x3e001e05	0.12511452
37	0x3af44afb	0.0018638069
38	0x3e4f0b0a	0.20219055
39	0x3e480cdb	0.19536154
40	0xbd3f8034	-0.046753123
41	0xbd8b7f1b	-0.06811353
42	0xbded8bbc	-0.11598918
43	0x3d089bc4	0.033351675
44	0x3d187f9d	0.037231077
45	0x3c426c21	0.0118666
46	0x3e10a246	0.14124402
47	0xbdbd6bb4	-0.09249058
48	0x3e7346db	0.23757498
49	0xbc18f755	-0.009336312
50	0x3cacf81f	0.021114407
51	0x3e06bcec	0.13158005
52	0x3dd291ab	0.1028169
53	0x3e478106	0.19482812
54	0x3cb8919f	0.022530375
55	0x3d0d6bcc	0.03452663
56	0x3d014521	0.031560067
57	0x3dbdbdae	0.09264694
58	0x3d6a93f0	0.05726999
59	0x3dcf2693	0.10114779
60	0xbe0ae753	-0.13564806
61	0x3dee00d8	0.11621255
62	0x3e257f3b	0.16161816
63	0xbd15b9ef	-0.036554273
64	0x3c8cec41	0.017202498
65	0x3e244eea	0.16045728
66	0xbb3343a2	-0.0027353545
67	0x3cc63368	0.024194434
68	0x3db696d2	0.089154854
69	0x3d8e36a2	0.06944014
70	0x3dd7ef63	0.10543706
71	0x3e344693	0.17605047
72	0x3bab2def	0.0052239816
73	0x3bb94c55	0.0056548514
74	0xbd4a60ab	-0.049408596
75	0xbd25112c	-0.04029958
76	0x3ca5aea2	0.020224873
77	0x3d01850f	0.031621035
78	0xbdaad5a4	-0.0834153
79	0xbb6d5428	-0.003621349
80	0xbd6aa97b	-0.057290535
81	0x3d7168f3	0.058937978
82	0x3d3b7017	0.045761194
83	0x3e4a8b61	0.19779731
84	0xbd5b7c64	-0.053585425
85	0x3e192d8d	0.14958782
86	0x3d4aa1b3	0.049470615
87	0x3dc62771	0.096754916
88	0x3cf0d160	0.029396713
89	0x3c19f276	0.009396186
90	0x3d8147bd	0.06312511
91	0xbdc4adbd	-0.096034504
92	0x3e3a4c1e	0.18193099
93	0x3d15f3bd	0.0366094
94	0xbce65097	-0.0281146
95	0xbe01d1b3	-0.1267765
96	0xbdb1e535	-0.08686296
97	0x3e245c7c	0.16050905
98	0x3d572759	0.05252776
99	0x3e00eec9	0.1259109
100	0xbd7ea7ca	-0.062171735
101	0xbd0e8388	-0.034793407
102	0x3e3264ef	0.17421316
103	0x3dea741c	0.11447927
104	0x3d0d93ba	0.03456471
105	0xbdb8e07f	-0.09027194
106	0x3dc81021	0.09768701
107	0xbd402ed6	-0.046919666
108	0xbde8e41b	-0.11371633
109	0x3cbe62c1	0.023240449
110	0xbcb4ac35	-0.022054771
111	0xbe69c8b3	-0.22830467
112	0x3dee11f9	0.11624522
113	0x3e5bc1b0	0.21460605
114	0xbc89554d	-0.016764307
115	0x3da7770e	0.08177005
116	0xbb8c8074	-0.0042877737
117	0x3e1bc401	0.15211488
118	0x3dccf47c	0.10007569
119	0xbc02e9cf	-0.007990315
120	0xbd01ec73	-0.031719636
121	0x3d7e0afc	0.062022194
122	0x3e1d6c60	0.15373373
123	0xbd92aafd	-0.0716152
124	0x3c42040a	0.011841783
125	0xbca20733	-0.019778823
126	0xbdb240bf	-0.087037556
127	0x3db8caa2	0.09023024
128	0x3cfa7278	0.030572161
129	0xbdebdc6f	-0.11516654
130	0xbd93d15a	-0.07217665
131	0xbdbc5e31	-0.09197653
132	0xbc7f7407	-0.015591628
133	0xbd625e11	-0.05526549
134	0x3de69412	0.11258711
135	0x3d00cdfd	0.031446446
136	0xbcdcde7a	-0.026961554
137	0xbcd59ad7	-0.02607481
138	0x3d9649a1	0.07338262
139	0x3c2d6650	0.010583475
140	0x3d28adf2	0.041181512
141	0x3df1c4b0	0.11805093
142	0xbe0e0473	-0.13868885
143	0x3c338428	0.0109568015
144	0xbd75411d	-0.05987655
145	0xbd8a2e1c	-0.06747076
146	0xbc9aae1d	-0.018881852
147	0xbc2063e2	-0.009789439
148	0x3e172ae7	0.1476246
149	0x3d66afb2	0.0563199
150	0x3dc5f9f1	0.09666813
151	0xbe108aec	-0.14115494
152	0x3e1b024e	0.15137598
153	0x3e2251ca	0.15851513
154	0x3e239a39	0.159768
155	0xbdceb86c	-0.100937694
156	0xbb94a8a5	-0.0045367056
157	0x3df542c8	0.11975628
158	0xbe54e0eb	-0.20788924
159	0xbd2ef266	-0.042711638
160	0x3e28c77a	0.16482344
161	0xbd1f7fe0	-0.03894031
162	0xbdaf5d26	-0.085626885
163	0xbe181d0f	-0.14854835
164	0x3dedea39	0.1161694
165	0x3da1b25e	0.07895349
166	0x3e2dc181	0.16968347
167	0xbdce6fe7	-0.100799374
168	0x3d9bcc85	0.076073684
169	0x3d4da337	0.050204482
170	0xbd284996	-0.041085802
171	0x3e15a0a7	0.14612065
172	0x3da7d860	0.08195567
173	0x3e229d94	0.15880424
174	0xbcc3384e	-0.02383056
175	0xbcc93b84	-0.024564512
176	0xbb047716	-0.0020212582
177	0x3d5c5f06	0.05380156
178	0xbd526e6e	-0.051374845
179	0xbe3f1904	-0.18661886
180	0x3d2aea2a	0.041727223
181	0xbd056097	-0.03256282
182	0x3d0d652a	0.034520306
183	0x3d3adf7f	0.0456233
184	0x3d358e60	0.044325233
185	0x3e1e04cd	0.15431519
186	0xbd9a4607	-0.07532888
187	0x3cf923f0	0.030412644
188	0xbd58f6f8	-0.052969903
189	0x3e7ace9e	0.2449288
190	0xbe2a7430	-0.16645885
191	0xbe1fb6fb	-0.15597145
192	0x3e05e5cd	0.13075943
193	0x3d468a8a	0.048471965
194	0xbe2a38d9	-0.16623248
195	0x3e5155fa	0.20442954
196	0x3d9173c7	0.07102161
197	0x3dec9f75	0.115538515
198	0x3e2ae1fc	0.16687769
199	0x3cea0ef7	0.028571589
200	0x3e17b6b3	0.14815788
201	0x3d824551	0.06360877
202	0x3e22071b	0.15823023
203	0x3baa2ff5	0.005193705
204	0x3d99b07f	0.07504367
205	0x3d8d9080	0.06912327
206	0xbe05863a	-0.13039485
207	0xbd4a4959	-0.049386356
208	0x3df5ebb2	0.12007846
209	0xbe266343	-0.16248803
210	0xbd20c018	-0.039245695
211	0xbe119744	-0.1421786
212	0x3d9a2314	0.07526222
213	0x3d4b82fa	0.049685456
214	0xbd9b6e46	-0.07589392
215	0xbd33eca0	-0.043926835
216	0x3d1f4f42	0.038893946
217	0x3d37d3a7	0.04487958
218	0x3da795c3	0.08182862
219	0x3cdaf9a5	0.026730368
220	0xbcc6338e	-0.024194505
221	0xbdb251d4	-0.08707014
222	0x3dd8915b	0.10574599
223	0x3e014d33	0.12627105
224	0x3dc38f81	0.095488556
225	0xbe38556a	-0.18001333
226	0xbe147cad	-0.14500685
227	0xbb7ca0d2	-0.0038548005
228	0x3e2790e1	0.1636386
229	0x3dd867cc	0.10566673
230	0x3d889cc3	0.06670525
231	0x3e0eb33f	0.13935564
232	0x3e001f1a	0.12511864
233	0x3c5baa8e	0.013407363
234	0x3cd1ffb6	0.025634628
235	0x3d2d3cb6	0.042294227
236	0x3e15d93c	0.1463365
237	0xbd43232b	-0.04764096
238	0x3ccebdc1	0.025236966
239	0x3dc97b99	0.098380275
240	0x3c036cd3	0.008021551
241	0xbe32cc10	-0.17460656
242	0x3d8aec06	0.06783299
243	0x3e8dfbda	0.2773121
244	0x3c5fea5a	0.013666714
245	0xbda98940	-0.082781315
246	0x3cfb5199	0.030678557
247	0xbde33077	-0.11093228
248	0xbd457823	-0.048210274
249	0xbe005a69	-0.12534489
250	0x3dc83918	0.09776515
251	0xbc9f1342	-0.019418363
252	0x3dd34435	0.10315744
253	0x3b71e069	0.003690744
254	0x3de6d039	0.11270184
255	0x3c6d369a	0.01447835

encoder.6.bias f4 [16]
0	0x3dd3d320	0.10343003
1	0x3e408683	0.18801312
2	0xbd6c45ec	-0.05768387
3	0xbdcc98dc	-0.09990093
4	0x3e3906ae	0.18068954
5	0x3d31f8c0	0.043450117
6	0xbbd8b2e9	-0.0066131246
7	0xbdfd533f	-0.123693936
8	0xbd060153	-0.032716107
9	0xbd7a0492	-0.061039515
10	0x3e8f67bf	0.2800884
11	0xbe16c56d	-0.1472375
12	0xbe2ac17e	-0.16675374
13	0x3e6180f9	0.22021855
14	0xbe544324	-0.20728737
15	0x3e1b0e82	0.15142253

decoder.0.weight f4 [16, 4, 4, 4]
0	0x3c99a972	0.018757556
1	0xbd86cafc	-0.06581685
2	0x3ce7b066	0.028282356
3	0xbddf2ece	-0.10897599
4	0xbbc9bb56	-0.0061563654
5	0xbda6372a	-0.081159905
6	0xbda44e6d	-0.08022771
7	0x3e2c629c	0.16834491
8	0x3d2bdfc9	0.041961465
9	0xbdf9474a	-0.121718004
10	0x3dcc9b27	0.099905305
11	0xbda31f7a	-0.07964988
12	0x3ceb9e7f	0.0287621
13	0x3c1bb3e1	0.009503336
14	0x3cfa4b6b	0.03055354
15	0x3e10584c	0.14096183
16	0x3e18d3fe	0.14924619
17	0xbd912012	-0.07086195
18	0xbdf54d74	-0.11977664
19	0xbdebcf34	-0.1151413
20	0x3ce2ec4f	0.027700571
21	0x3df2a5ca	0.11848028
22	0x3bd6d23f	0.006555825
23	0x3e0a0a28	0.13480437
24	0xbda4d925	-0.080492295
25	0xbd0d85d3	-0.034551453
26	0xbdd45b6a	-0.10368998
27	0x3e01d793	0.12679891
28	0xbe09e8ae	-0.13467667
29	0xbd773a32	-0.060358234
30	0xbd006460	-0.031345725
31	0xbda084f9	-0.078378625
32	0xbdd5500b	-0.104156576
33	0xbd2c5ee9	-0.0420827
34	0x3acb30ac	0.0015502176
35	0x3b5059eb	0.0031791877
36	0x3d4bdb85	0.049769897
37	0x3e7100cf	0.23535465
38	0x3e291277	0.1651095
39	0x3e0446c8	0.12917626
40	0x3d594899	0.05304775
41	0x3dc2e426	0.09516172
42	0x3cb1bc2a	0.021696169
43	0x3d54fab0	0.051996887
44	0xbd9629b9	-0.07332177
45	0xbcec13d0	-0.028818041
46	0x3b98e360	0.004665777
47	0xbe0215b2	-0.12703589
48	0xbd2b16aa	-0.04176966
49	0x3cd85ad0	0.02641049
50	0x3db2a37e	0.0872259
51	0x3d863c90	0.0655452
52	0xbd040ce8	-0.03223887
53	0xbdaa585f	-0.08317637
54	0xbca18afe	-0.019719597
55	0x3e0a6061	0.13513328
56	0x38280658	4.006023e-05
57	0x3cb115a7	0.02161677
58	0xbd505af7	-0.050868
59	0x3d06ccff	0.032910343
60	0x3dac4479	0.084114976
61	0x3d8d32be	0.06894444
62	0xbd428ad2	-0.04749567
63	0xbc894203	-0.01675511
64	0x3ddf5daa	0.10906537
65	0x3c9c235e	0.019059833
66	0x3d592615	0.053014833
67	0x3de4e9f2	0.11177434
68	0x3d0003c7	0.031253602
69	0x3da092b7	0.07840484
70	0x3d3bf2ea	0.045885958
71	0x3dec55f6	0.11539833
72	0xbd0a46f3	-0.03375907
73	0xbddbe3d3	-0.107368134
74	0xbc92081f	-0.017826138
75	0xbdfa39f9	-0.12218089
76	0x3dc3da32	0.09563102
77	0x3d931cf3	0.07183256
78	0xbdcb9319	-0.09940166
79	0x3bc8f0c2	0.006132216
80	0xbd0baaa9	-0.0340983
81	0x3dbfd151	0.09366096
82	0x3ae0dd8d	0.0017155871
83	0xbc2d8a0c	-0.010591995
84	0x3d1bfc99	0.038082693
85	0x3c94682a	0.018116076
86	0x3d0cefa2	0.03440822
87	0x3d1ee564	0.038792983
88	0x3dc94708	0.09828001
89	0xbde69cc2	-0.11260368
90	0x3d4c6309	0.049899135
91	0xbd84a1be	-0.064761624
92	0xbd68c688	-0.05682996
93	0x3d235cdf	0.03988349
94	0xbdc8e5ff	-0.09809493
95	0xbd9ed629	-0.077556916
96	0x3ad995bd	0.0016600412
97	0x3e5fb0a3	0.21844725
98	0xbd9de839	-0.077103086
99	0xbd64e36b	-0.055880945
100	0x3e0b5517	0.13606678
101	0x3e91205b	0.28344998
102	0xbc826ab9	-0.01592003
103	0x3cd06614	0.0254393
104	0x3d87ed1b	0.06637021
105	0xbdacc01f	-0.08435082
106	0x3d7be86a	0.061500944
107	0x3d4eb220	0.050462842
108	0xbc0263c7	-0.007958359
109	0x3c02d4e3	0.007985326
110	0x3c3025f9	0.010751241
111	0x3d4ea34e	0.05044871
112	0xbd1eb9a1	-0.03875125
113	0x3b33df43	0.0027446307
114	0x3e2124ea	0.15736738
115	0x3bf130b8	0.007360544
116	0xbc530eed	-0.012881977
117	0xbdaf5acf	-0.08562242
118	0x3da77591	0.08176721
119	0x3e1a17cb	0.15048139
120	0xbd4add91	-0.04952771
121	0x3d92e99a	0.07173462
122	0x3d972579	0.07380194
123	0xbdcae0ae	-0.099061355
124	0x3c9aa3ea	0.018876988
125	0xbd616665	-0.05502929
126	0xbd9e5adf	-0.07732176
127	0x3d01aa76	0.031656705
128	0xbc8d7c41	-0.017271163
129	0xbd601618	-0.05470857
130	0x3cbb13cc	0.022836588
131	0xbc7963b6	-0.015221527
132	0xbd3ac0cf	-0.045594033
133	0x3c99d3be	0.018777724
134	0x3bfa83c0	0.0076451004
135	0x3d3d9848	0.046287805
136	0x3e005066	0.1253067
137	0xbd93a56b	-0.07209285
138	0xbd3c03af	-0.04590195
139	0xbd537c43	-0.051632177
140	0xbda2c1c6	-0.079471156
141	0xbdc2619f	-0.09491276
142	0xbce8069c	-0.028323464
143	0xbe17843c	-0.14796537
144	0x3c3d23e0	0.011544198
145	0xbda07a28	-0.078357995
146	0x3dc1d9ce	0.09465371
147	0x3c217f22	0.009856971
148	0x3cc4c1ed	0.024018252
149	0x3d02240e	0.031772666
150	0x3d11ba6b	0.035578173
151	0xbd91e073	-0.071228884
152	0xbe1cb3f5	-0.15303023
153	0x3d952ce0	0.0728395
154	0xbc57c924	-0.013170514
155	0x3d3b154c	0.045674607
156	0x3d984948	0.07435852
157	0x3d1bdae6	0.038050555
158	0x3d1a5ab2	0.03768415
159	0xbe34b792	-0.17648152
160	0x3c9fab2b	0.019490799
161	0xbde16662	-0.11005856
162	0xbe1d7bf2	-0.15379313
163	0xbdc9b737	-0.098493986
164	0xbe044259	-0.12915935
165	0x3dde5116	0.1085531
166	0x3e2a52c4	0.16633135
167	0xbdc79de2	-0.09746911
168	0x3d8ba31c	0.0681822
169	0xbe36293b	-0.17789166
170	0x3d287a4c	0.041132256
171	0xbde80dc7	-0.11330753
172	0xbdb86396	-0.090033695
173	0x3dc03d95	0.09386746
174	0x3d15ff4d	0.036620427
175	0xbc8a71bc	-0.016899936
176	0x3abf82d8	0.0014611138
177	0x3c4c84ff	0.012482881
178	0xbd90434b	-0.07044085
179	0xbe0f73d6	-0.14009032
180	0xbd38a377	-0.045077767
181	0xbdc045a2	-0.093882814
182	0x3e032d0a	0.1281015
183	0xbd6e371c	-0.058158025
184	0x3d9e8d51	0.07741798
185	0x3dd85086	0.105622336
186	0xbd16d379	-0.03682277
187	0xbc58622e	-0.013207002
188	0xbdc9dc83	-0.098565124
189	0x3d978284	0.07397941
190	0xba9e0d61	-0.0012058431
191	0x3d95b8d8	0.07310647
192	0x3b90a256	0.004413883
193	0x3d8054f7	0.06266206
194	0xbe1eda38	-0.15512931
195	0x3db3ab58	0.087729156
196	0x3d179464	0.03700675
197	0x3cda0d6c	0.026617728
198	0x3d81a65b	0.06330558
199	0xbd4f194a	-0.050561227
200	0x3d23b00f	0.039962824
201	0x3dc3cff9	0.09561152
202	0xbdaeb744	-0.08531049
203	0xbd189e02	-0.037260063
204	0xbe1638d7	-0.1467012
205	0xbe032278	-0.12806118
206	0xbded3026	-0.11581449
207	0x3d47c7b4	0.048774436
208	0x3c1f20df	0.009712427
209	0xbe4ea29e	-0.20179221
210	0x3ccc69f9	0.024952875
211	0xbdbf0b64	-0.093283445
212	0x399b3080	0.0002960004
213	0xbd77138e	-0.060321383
214	0x3ddc9b2a	0.10771783
215	0x3ba565b5	0.005047525
216	0x3de05864	0.10954359
217	0x3cf87137	0.030327423
218	0x3de2e766	0.11079292
219	0x3b3c3a6b	0.0028721343
220	0x3d2b03c9	0.041751657
221	0x3d4d69ee	0.05014985
222	0xbd452e55	-0.04813989
223	0x3d88bcef	0.06676661
224	0xbdf2746a	-0.118386105
225	0xbb161deb	-0.0022906016
226	0xbd4f47ce	-0.050605588
227	0x3e26deee	0.16295978
228	0x3dbdef79	0.092741914
229	0x3d6c21f5	0.05764957
230	0x3e1dd4fd	0.1541328
231	0xbde078f2	-0.109605685
232	0x3de1276b	0.109938465
233	0xbcde44bf	-0.02713239
234	0x3ced2748	0.028949395
235	0xbd09547a	-0.03352783
236	0xbd84f7e6	-0.064925954
237	0xbd9a04e0	-0.07520461
238	0xbc9c17d3	-0.019054329
239	0x3d1154aa	0.035481133
240	0x3ce23fd7	0.027618332
241	0xbde96314	-0.11395851
242	0xbd88349f	-0.06650662
243	0x3defa9ca	0.117023066
244	0xbe0419de	-0.12900493
245	0xbdf33b76	-0.11876576
246	0x3e1bfc0b	0.15232866
247	0x3d1b4c04	0.03791429
248	0x3d1470f8	0.036240548
249	0xbe00b275	-0.12568076
250	0xbceeffa3	-0.029174631
251	0x3d5ed043	0.054397833
252	0xbd92ebd8	-0.0717389
253	0x3a2521a4	0.00062992633
254	0xbd09d0e8	-0.033646494
255	0xbdd8f7cc	-0.105941385

decoder.0.bias f4 [4]
0	0x3e2bece6	0.16789588
1	0x3caee7fe	0.021350857
2	0x3d771c9b	0.060330015
3	0x3b0ead03	0.0021770603

decoder.2.weight f4 [4, 8, 3, 3]
0	0xbe0a1054	-0.13482791
1	0xbd48ecca	-0.049053945
2	0xbd2a8d26	-0.041638516
3	0x3de05100	0.109529495
4	0x3ddc950f	0.10770618
5	0x3d023b27	0.031794693
6	0x3df5dc01	0.12004853
7	0x3dac5c08	0.08415991
8	0x3e75d6cc	0.2400772
9	0xbda507a5	-0.08058099
10	0xbe02b909	-0.12765898
11	0xbdcf0e3e	-0.10110138
12	0x3cb0408d	0.021515155
13	0x3d5430c6	0.051804326
14	0x3d989616	0.074505016
15	0xbbbdb80e	-0.0057897633
16	0xbd299ca6	-0.041409157
17	0xbd131967	-0.035912897
18	0x3e1e5417	0.15461765
19	0x3d019c1e	0.031643026
20	0xbdf05a48	-0.1173597
21	0xbba2b7c2	-0.0049657533
22	0x3bd13da7	0.0063855234
23	0x3cdc5a3e	0.0268985
24	0x3d01611c	0.03158675
25	0x3b8d50c5	0.004312607
26	0xbcbacac9	-0.022801774
27	0xbd4769c3	-0.048684847
28	0x3d4d8b14	0.050181463
29	0x3d98019a	0.074221805
30	0x3cf92764	0.03041429
31	0xbc376c70	-0.011195287
32	0xbc9e8a73	-0.019353127
33	0x3cb526a4	0.022113152
34	0x3d3ce6fa	0.046118714
35	0x3d0cd97e	0.034387104
36	0x3d62b190	0.055345118
37	0x3b037a5f	0.0020061953
38	0x3c81169e	0.015757855
39	0x3e25717d	0.16156574
40	0x3dd882f1	0.1057185
41	0x3e6a9f9a	0.22912446
42	0x3e5de4ff	0.21669386
43	0x3e356852	0.17715576
44	0x3e78487f	0.24246405
45	0xbddb287d	-0.10701082
46	0xbd29c557	-0.041447964
47	0x3e1f6cb6	0.15568814
48	0xbd8f06dc	-0.0698373
49	0x3d7d6df9	0.061872456
50	0x3cd53de3	0.026030486
51	0x3b48a7ef	0.0030617674
52	0xbb762ac1	-0.0037562104
53	0x3d257d55	0.04040273
54	0xbe20b9a0	-0.1569581
55	0x3bc89e3e	0.0061223796
56	0x3d815926	0.06315832
57	0x3bec06ab	0.0072029433
58	0x3b310a4f	0.00270142
59	0x3deb3519	0.11484737
60	0xbd97f906	-0.07420544
61	0xbde8d6dd	-0.11369107
62	0x3e00c002	0.12573245
63	0x3de9f984	0.114245445
64	0xbdd1f18a	-0.10251148
65	0xbdb28f1c	-0.08718702
66	0x3d9e52ea	0.07730658
67	0x3c80c735	0.01571999
68	0xbd02da3b	-0.031946402
69	0x3dd33ff5	0.10314933
70	0x3d8bea06	0.06831746
71	0xbe29a91e	-0.1656842
72	0xbd9c793a	-0.0764031
73	0x3de1ab51	0.11019004
74	0xbb9c2f79	-0.0047664014
75	0xbdb8dfc5	-0.09027056
76	0x3e164ddd	0.1467814
77	0x3dbd39d6	0.09239547
78	0x3d727646	0.059194826
79	0xbe0151af	-0.12628816
80	0x3d7d0b84	0.06177856
81	0xbd3e64f5	-0.046483
82	0x3dd8f200	0.10593033
83	0x3e15b4e6	0.14619789
84	0xbe25a16d	-0.1617486
85	0x3e0eec3a	0.13957301
86	0x3e09dcba	0.13463107
87	0xbd81caf2	-0.06337537
88	0xbdde41cc	-0.108523935
89	0x3e380765	0.17971571
90	0x3ca9ed4e	0.020743039
91	0x3be3f460	0.006956622
92	0x3cadea71	0.021229954
93	0x3dc3307e	0.095307335
94	0x3d9d8d32	0.076929465
95	0xbd0fe994	-0.035134867
96	0x3dd00c55	0.10158602
97	0x3dcd748f	0.100319974
98	0x3db4d920	0.08830476
99	0x3c220434	0.009888697
100	0x3e01a414	0.12660247
101	0x3d2d4039	0.042297576
102	0xbd2cfd61	-0.04223383
103	0x3d44990a	0.047997512
104	0x3e22cf2e	0.15899345
105	0xbd151d2c	-0.036404774
106	0x3c1ede98	0.009696625
107	0x3e017386	0.12641725
108	0xbd864e8e	-0.06557952
109	0x3d2bb7a7	0.04192319
110	0xbc3b7dbd	-0.011443553
111	0x3d9c1b3d	0.07622383
112	0x3d251d31	0.040311042
113	0x3d69c2c6	0.057070516
114	0xbc342542	-0.010995211
115	0x3d39103f	0.04518151
116	0x3db50a57	0.08839863
117	0x3d493c21	0.04912961
118	0x3d626b3b	0.055278044
119	0xbe7ceb77	-0.24699198
120	0xbdb77448	-0.08957726
121	0xbda9faf4	-0.08299819
122	0xbc32c0e7	-0.010910249
123	0x3dacb792	0.08433451
124	0xbe295079	-0.16534604
125	0xbe24cbeb	-0.16093414
126	0x3b210211	0.0024567882
127	0xbd93b044	-0.072113544
128	0x3d8bbcdc	0.068231314
129	0xbd26536b	-0.040606897
130	0x3da1156e	0.078654155
131	0x3e2d91cd	0.1695015
132	0xbcc6f074	-0.024284579
133	0xbc84596e	-0.016155925
134	0xbd996a14	-0.07490936
135	0x3db68e85	0.08913902
136	0x3c34b691	0.011029855
137	0x3da35fa4	0.079772264
138	0x3dfc397a	0.1231565
139	0x3e2fff28	0.17187178
140	0x3e0c44b9	0.1369809
141	0x3e388e73	0.1802309
142	0x3dd157d9	0.10221834
143	0xbe108448	-0.14112961
144	0x3c49a743	0.012307945
145	0x3c3a3e1a	0.011367345
146	0x3dccfc53	0.100090645
147	0xbd806c95	-0.062707104
148	0xbabb242a	-0.0014277746
149	0x3dca458e	0.09876548
150	0x3bad7004	0.0052928943
151	0xbda2e795	-0.07954327
152	0xbe01f035	-0.12689288
153	0x3cdecbd3	0.0271968
154	0x3dbd909c	0.09256098
155	0x3e258a82	0.16166118
156	0xbd1f3c66	-0.03887596
157	0x3c4d00b9	0.012512379
158	0x3cc4db57	0.02403037
159	0xbced48be	-0.02896535
160	0x3d39fb31	0.04540557
161	0x3d8fb4d2	0.070169106
162	0xbd8acab4	-0.06776944
163	0x3c42dbfd	0.01189327
164	0xbdab2a41	-0.08357669
165	0xbe07a457	-0.13246284
166	0xbd62a5f5	-0.05533405
167	0x3dc54a3c	0.096333
168	0xbe0a80b5	-0.1352566
169	0xbe35b9be	-0.17746636
170	0x3d43f979	0.047845338
171	0x3d6500cb	0.05590896
172	0x3e19ebc1	0.15031339
173	0x3df008c0	0.11720419
174	0x3e0d9e89	0.13830008
175	0x3e563d2b	0.20921771
176	0x3e1516c1	0.14559461
177	0x3d09a540	0.03360486
178	0x3dd5e33b	0.104437314
179	0x3d6fdaa3	0.058558118
180	0x3d0a4447	0.03375652
181	0x3db35a61	0.08757473
182	0x3d4a6b69	0.04941884
183	0x3d4cdf42	0.050017603
184	0x3e201b58	0.15635431
185	0x3e341330	0.17585444
186	0x3cbbf83a	0.022945512
187	0x3dcfabc0	0.101401806
188	0x3cfde448	0.030992642
189	0xbd999d3c	-0.07500693
190	0xbb3b6a67	-0.0028597356
191	0x3d76d0b1	0.060257617
192	0x3da7da25	0.08195905
193	0x3dae9bbd	0.085257985
194	0x3cfdbc12	0.030973468
195	0x3d8b6e37	0.06808131
196	0x3c9722f8	0.018449292
197	0xbcdc0f40	-0.02686274
198	0x3b981339	0.0046409634
199	0xbe01b7e8	-0.12667811
200	0x3d19dcfc	0.037564263
201	0xbc200ac6	-0.009768194
202	0x3c53c55d	0.012925473
203	0x3ca8e321	0.020616116
204	0xbe5b4b21	-0.21415378
205	0xbddf9752	-0.10917534
206	0x3d916be0	0.07100654
207	0xbdcefad9	-0.10106439
208	0x3b4a7ba9	0.003089646
209	0xbe586fcf	-0.21136402
210	0xbdb5da9f	-0.08879589
211	0xbdceb57d	-0.1009321
212	0x3da82460	0.08210063
213	0xbe6663e9	-0.2249905
214	0x3d0922e6	0.033480547
215	0xbddba8c7	-0.10725551
216	0xbe07867f	-0.132349
217	0x3e4907d4	0.19631892
218	0x3e181c5a	0.14854565
219	0x3d88a2a1	0.06671644
220	0x3daddef0	0.084897876
221	0x3ccf3512	0.02529386
222	0xbdac5f54	-0.0841662
223	0x3db73be5	0.08946971
224	0xbd39639d	-0.045261014
225	0xbd372794	-0.04471548
226	0x3d6b40c1	0.0574348
227	0x3d7a08fd	0.06104373
228	0x3dddb3da	0.108253196
229	0x3e6fce6d	0.23418589
230	0x3b8c8848	0.004288707
231	0x3d95b2de	0.07309507
232	0x3e4ee343	0.20203881
233	0x3db30e3a	0.08742948
234	0xbc3b08f8	-0.011415713
235	0x3dc25b06	0.094900176
236	0x3da9cc31	0.082908995
237	0x3be1ce81	0.0068910723
238	0x3da46fba	0.08029123
239	0x3c882de9	0.016623454
240	0xbd6ff70d	-0.058585215
241	0x3ddeb25d	0.10873864
242	0x3e345858	0.17611825
243	0xbcc43592	-0.023951326
244	0x3bf514c1	0.0074792807
245	0x3b6ebed6	0.0036429665
246	0x3c43c8c8	0.011949725
247	0x3e15f850	0.14645505
248	0x3dc0f096	0.09420888
249	0x3d7db74a	0.061942376
250	0x3cce5252	0.025185738
251	0x3dcd8380	0.10034847
252	0xbcd9ee68	-0.026602939
253	0x3dad34b2	0.084573165
254	0x3da4f702	0.080549255
255	0xbd9b769f	-0.075909846

decoder.2.bias f4 [8]
0	0x3e45592f	0.19272302
1	0xbde40d99	-0.11135406
2	0xbe8fa238	-0.2805345
3	0xbe093c36	-0.13401875
4	0x3ea1d017	0.31604072
5	0xbea4db20	-0.3219843
6	0xbe32f7c7	-0.17477332
7	0xbe9b9baa	-0.303922

decoder.4.weight f4 [8, 16, 3, 3]
0	0x3d850d9f	0.06496739
1	0xbd4b9944	-0.049706712
2	0xbca958a3	-0.020672148
3	0xbc90b9b0	-0.017666668
4	0xbd4c7708	-0.049918205
5	0xbcba53e1	-0.022745075
6	0xbd4e1966	-0.05031719
7	0xbc4dc4e5	-0.01255915
8	0xbdc406d7	-0.09571617
9	0x3a34b8d9	0.00068939995
10	0x3d00f337	0.031481948
11	0xbd43e9bc	-0.04783033
12	0x3ce1c65f	0.027560411
13	0x3d8016aa	0.06254323
14	0x3cba646a	0.02275296
15	0xbd05981d	-0.03261577
16	0x3d1f5bcb	0.0389059
17	0x3d865cf6	0.065607
18	0x3dd430ae	0.103608474
19	0x3dc75a8b	0.097340666
20	0x3d633f39	0.055480216
21	0x3e0ae694	0.13564521
22	0x3e06301a	0.13104287
23	0x3da478ed	0.08030877
24	0x3d9e192c	0.07719645
25	0x3dcdc45f	0.100472204
26	0x3cb4e9f0	0.022084206
27	0x3dcc6319	0.09979839
28	0x3e3c925c	0.18415207
29	0x3e153d0e	0.14574072
30	0x3e30e600	0.17275238
31	0x3e5bcc13	0.21464567
32	0x3dcc27db	0.09968539
33	0x3e2905b6	0.16506085
34	0x3e3c3f75	0.18383582
35	0x3dee5571	0.116373904
36	0xbcfba302	-0.030717377
37	0x3cf2b416	0.029626887
38	0xbd6995e9	-0.05702773
39	0xbd04840e	-0.0323525
40	0x3c97479c	0.018466763
41	0xbc7d7772	-0.0154703725
42	0xbc80f11c	-0.01573997
43	0xbcb1afa3	-0.021690195
44	0x3b17f92c	0.002318929
45	0xbc0ed263	-0.008717152
46	0x3b87e576	0.004147227
47	0xbd0fa629	-0.035070572
48	0xbca659e1	-0.02030653
49	0x3c9aba06	0.018887531
50	0x3ccf21be	0.025284644
51	0xbd1a37e6	-0.037650965
52	0xbca9822b	-0.020691952
53	0x3d171208	0.03688243
54	0x3d33b16c	0.043870375
55	0x3dda3f24	0.10656574
56	0x3ddc3199	0.107516475
57	0x3dd33c4c	0.10314235
58	0x3e2c538a	0.16828743
59	0x3dde14f5	0.10843841
60	0x3e01140f	0.12605308
61	0x3dcdf563	0.100565694
62	0x3dd2c4b4	0.102914244
63	0xbd4436f2	-0.047903962
64	0xbceb4eeb	-0.028724154
65	0x3c4c460a	0.0124678705
66	0xbcac2f8e	-0.02101877
67	0xbcbde623	-0.023181027
68	0xbd00bd8b	-0.031430762
69	0xbd120b4c	-0.035655305
70	0x3d16a21f	0.036775704
71	0x3c62aae8	0.013834693
72	0xbd1ca754	-0.038245514
73	0xbcd63fe9	-0.026153522
74	0xbd2568b9	-0.040383074
75	0x3bb99774	0.0056638066
76	0x3c045e67	0.008079148
77	0xbbca1086	-0.0061665205
78	0xbc9fe7f6	-0.019519787
79	0x3cb50ffa	0.022102345
80	0xbcd598d8	-0.026073858
81	0xbd68d4eb	-0.05684368
82	0x3bc16669	0.005902101
83	0xbcc18d18	-0.023626849
84	0xbc3afc2a	-0.01141266
85	0xbc6ef371	-0.014584408
86	0x3b1cdd79	0.002393572
87	0xbd237d41	-0.039914373
88	0xbd2f0744	-0.04273154
89	0xbca21a20	-0.019787848
90	0xbd29aa95	-0.041422445
91	0xbc0b67e0	-0.008508652
92	0xbd0ddc1f	-0.034633752
93	0xbd08efb7	-0.033431735
94	0x3ca90d04	0.02063609
95	0xbcb64867	-0.022251321
96	0x3a9f5e0e	0.0012158768
97	0x390c3f68	0.00013375061
98	0x3c22402f	0.009902998
99	0xbcc8fe95	-0.024535457
100	0xbc785113	-0.015156048
101	0x3bec8e8e	0.0072191423
102	0x3c87947c	0.016550295
103	0xbc3ebe28	-0.0116420165
104	0x3c7053a7	0.014668382
105	0xbd083ebb	-0.03326295
106	0xbc6033fa	-0.013684267
107	0xbc0e7dff	-0.008697032
108	0xbd2165fe	-0.039403908
109	0x3cb9aca0	0.022665322
110	0x3cf67756	0.0300862
111	0xbd5513d7	-0.052020874
112	0xbc4e505f	-0.012592404
113	0xbd19c37b	-0.03753994
114	0x3d10b70d	0.03533082
115	0x3cd05205	0.025429735
116	0x3d55a68e	0.052160792
117	0x3d017747	0.031607892
118	0x3df7523c	0.12076232
119	0x3da88f15	0.08230416
120	0x3d930dfb	0.07180401
121	0x3e07188d	0.13192959
122	0x3dc782d8	0.09741753
123	0x3dd581be	0.10425137
124	0x3e2cf69d	0.1689095
125	0x3dc1de53	0.09466233
126	0xbd3a1090	-0.04542595
127	0xbcf51e96	-0.029921811
128	0xbd1a76c0	-0.037710905
129	0xbcded9e2	-0.027203504
130	0xbdab18e5	-0.08354358
131	0xbd113069	-0.03544656
132	0x3c89ba66	0.016812515
133	0xbc2f735f	-0.010708659
134	0x3c794ddf	0.01521632
135	0x3d344191	0.04400784
136	0x3e12ec95	0.14348061
137	0x3ded5169	0.115877934
138	0x3d78f01c	0.06077586
139	0x3dfbc42b	0.122932754
140	0x3e0dc630	0.13845134
141	0x3da18a04	0.078876525
142	0x3ddeb1cc	0.10873756
143	0x3e085140	0.13312244
144	0xbe198398	-0.14991605
145	0x3db900f4	0.09033385
146	0x3abb3b5d	0.0014284659
147	0x3db92468	0.09040147
148	0x3e1a1d60	0.15050268
149	0x3d494034	0.049133494
150	0xbcfc0aee	-0.03076693
151	0x3d854957	0.06508129
152	0x3d3a07a8	0.045417458
153	0x3c80831d	0.01568752
154	0x3de54029	0.11193878
155	0x3d830cab	0.063989006
156	0x3d87ea81	0.06636525
157	0x3d62ce0e	0.05537229
158	0x3b49fe28	0.0030821655
159	0x3d7456f8	0.059653252
160	0x3e0fa33c	0.14027113
161	0x3cbc4ad0	0.022984892
162	0x3c57b946	0.013166731
163	0xbcc76caf	-0.024343817
164	0xbc1787dd	-0.009248701
165	0x3d4f0d23	0.050549638
166	0xbbcbbe3d	-0.0062177465
167	0xbd56af8e	-0.052413516
168	0x3a5477a2	0.0008104985
169	0x3ce51381	0.027963402
170	0x3ca99717	0.020701928
171	0xbd00dd74	-0.031461194
172	0xbd293e07	-0.04131892
173	0xbde6cd7d	-0.112696625
174	0xbc0319ab	-0.008001725
175	0x3b174bed	0.0023086027
176	0xbde97b98	-0.11400527
177	0x3c8c1a01	0.017102243
178	0x3c1eae85	0.009685163
179	0xbcfbc604	-0.03073407
180	0x3d39710c	0.045273826
181	0x3d4678e1	0.048455123
182	0x3ce570f0	0.028007954
183	0x3da4e143	0.08050778
184	0x3d9ce632	0.07661094
185	0x3ca07dd0	0.019591242
186	0x3d91ca0c	0.071186155
187	0x3dded0dc	0.108796805
188	0x3dd20561	0.10254932
189	0x3d8ce923	0.06880405
190	0x3d18d809	0.037315402
191	0xba209193	-0.0006125208
192	0x3d2a03f7	0.041507687
193	0x3d9e5843	0.07731678
194	0x3da0f1e4	0.07858637
195	0x3d88dbea	0.0668257
196	0x3db70647	0.08936744
197	0xbc70cb90	-0.014696971
198	0xbe7230f8	-0.23651493
199	0xbc434543	-0.011918369
200	0x3dc08251	0.09399856
201	0x3c8914e4	0.016733594
202	0x3d760060	0.06005895
203	0x3aa8ea06	0.0012887127
204	0xbd5bc95a	-0.05365882
205	0xbd061bd0	-0.032741368
206	0xbbb30144	-0.0054627974
207	0xbcdbb200	-0.026818275
208	0x3c451885	0.012029772
209	0x3dd30329	0.10303337
210	0x3d4cdc51	0.050014798
211	0x3dbcb13d	0.09213493
212	0xbd7dce70	-0.061964452
213	0x3c5a256a	0.013314584
214	0xbba1eb98	-0.004941415
215	0x3dcb9574	0.09940615
216	0x3ca50bc7	0.020147217
217	0x3d947334	0.07248536
218	0x3d72669f	0.0591799
219	0x3d0c36d9	0.034231994
220	0x3dbcd2c7	0.0921989
221	0x3da84915	0.08217064
222	0x3d230db4	0.03980799
223	0x3d900ed1	0.07034076
224	0xb8e72246	-0.00011021322
225	0x3b614c4d	0.0034377754
226	0x3d93089c	0.071793765
227	0xbb9b8046	-0.004745516
228	0x3d98eb50	0.07466757
229	0x3d867308	0.06564909
230	0xbbdd06e9	-0.0067452085
231	0xbbdaeadf	-0.006680831
232	0xbcd12819	-0.025531815
233	0x3cc67b36	0.024228673
234	0x3ce7ca66	0.028294753
235	0x3d319d73	0.043363046
236	0xbc003300	-0.007824659
237	0x3de3a99d	0.111163355
238	0x3d4cdcd1	0.050015274
239	0xbc0f79a3	-0.008757028
240	0x3daf7bb2	0.08568515
241	0x3dc2a1a7	0.09503489
242	0x3c69127c	0.014225598
243	0x3cfc29b0	0.030781597
244	0x3daa46f5	0.08314315
245	0x3d95fd51	0.07323707
246	0x3cd2f06e	0.025749411
247	0x3e161dc2	0.14659789
248	0xbd49821c	-0.049196348
249	0x3d452fc9	0.048141275
250	0x3dc911d7	0.09817856
251	0x3d5b4477	0.05353209
252	0xba24631c	-0.0006270872
253	0x3d8527d7	0.065017395
254	0x3c7bb9bc	0.015364107
255	0x3d858484	0.06519416

decoder.4.bias f4 [16]
0	0xbe229783	-0.1587811
1	0xbc09dbcc	-0.00841422
2	0x3e80537c	0.25063694
3	0x3e467d98	0.19383848
4	0xbe488c39	-0.1958474
5	0xbe183dd2	-0.14867333
6	0x3e638764	0.22219616
7	0xbe08e8da	-0.13370076
8	0xbe8bfd45	-0.27341667
9	0xbe247e38	-0.16063774
10	0xbe2f835e	-0.17139956
11	0xbe438cab	-0.1909663
12	0xbe8a51c5	-0.2701551
13	0x3e733fd5	0.23754819
14	0xbe6b47fb	-0.22976677
15	0x3e8bbff6	0.27294892
